----------------------------------------------------------------
        Layer (type)               Output Shape         Param #
================================================================
            Conv2d-1           [-1, 64, 32, 32]           4,864
       BatchNorm2d-2           [-1, 64, 32, 32]             128
              ReLU-3           [-1, 64, 32, 32]               0
            Conv2d-4          [-1, 128, 32, 32]          73,856
       BatchNorm2d-5          [-1, 128, 32, 32]             256
              ReLU-6          [-1, 128, 32, 32]               0
         MaxPool2d-7          [-1, 128, 16, 16]               0
            Conv2d-8           [-1, 64, 16, 16]          73,792
       BatchNorm2d-9           [-1, 64, 16, 16]             128
             ReLU-10           [-1, 64, 16, 16]               0
        MaxPool2d-11             [-1, 64, 8, 8]               0
          Flatten-12                 [-1, 4096]               0
           Linear-13                  [-1, 128]         524,416
             ReLU-14                  [-1, 128]               0
          Dropout-15                  [-1, 128]               0
           Linear-16                   [-1, 10]           1,290